…
, auto_augment=randaugment, erasing=0.4, crop_fraction=1.0, cfg=None, tracker=botsort.yaml, save_dir=runs/detect/yolov8n_ppe_css_100_epochs\nDownloading https://ultralytics.com/assets/Arial.ttf to '/root/.config/Ultralytics/Arial.ttf'...\n","output_type":"stream"},{"name":"stderr","text":"100%|██████████| 755k/755k [00:00<00:00, 4.00MB/s]\n","output_type":"stream"},{"name":"stdout","text":"Overriding model.yaml nc=80 with nc=10\n\n                   from  n    params  module                                       arguments                     \n  0                  -1  1       464  ultralytics.nn.modules.conv.Conv             [3, 16, 3, 2]                 \n  1                  -1  1      4672  ultralytics.nn.modules.conv.Conv             [16, 32, 3, 2]                \n  2                  -1  1      7360  ultralytics.nn.modules.block.C2f             [32, 32, 1, True]             \n  3                  -1  1     18560  ultralytics.nn.modules.conv.Conv             [32, 64, 3, 2]                \n  4                  -1  2     49664  ultralytics.nn.modules.block.C2f             [64, 64, 2, True]             \n  5                  -1  1     73984  ultralytics.nn.modules.conv.Conv             [64, 128, 3, 2]               \n  6                  -1  2    197632  ultralytics.nn.modules.block.C2f             [128, 128, 2, True]           \n  7                  -1  1    295424  ultralytics.nn.modules.conv.Conv             [128, 256, 3, 2]              \n  8                  -1  1    460288  ultralytics.nn.modules.block.C2f             [256, 256, 1, True]           \n  9                  -1  1    164608  ultralytics.nn.modules.block.SPPF            [256, 256, 5]                 \n 10                  -1  1         0  torch.nn.modules.upsampling.Upsample         [None, 2, 'nearest']          \n 11             [-1, 6]  1         0  ultralytics.nn.modules.conv.Concat           [1]                           \n 12                  -1  1    148224  ultralytics.nn.modules.block.C2f             [384, 128, 1]                 \n 13                  -1  1         0  torch.nn.modules.upsampling.Upsample         [None, 2, 'nearest']          \n 14             [-1, 4]  1         0  ultralytics.nn.modules.conv.Concat           [1]                           \n 15                  -1  1     37248  ultralytics.nn.modules.block.C2f             [192, 64, 1]                  \n 16                  -1  1     36992  ultralytics.nn.modules.conv.Conv             [64, 64, 3, 2]                \n 17            [-1, 12]  1         0  ultralytics.nn.modules.conv.Concat           [1]                           \n 18                  -1  1    123648  ultralytics.nn.modules.block.C2f             [192, 128, 1]                 \n 19                  -1  1    147712  ultralytics.nn.modules.conv.Conv             [128, 128, 3, 2]              \n 20             [-1, 9]  1         0  ultralytics.nn.modules.conv.Concat           [1]                           \n 21                  -1  1    493056  ultralytics.nn.modules.block.C2f             [384, 256, 1]                 \n 22        [15, 18, 21]  1    432622  ultralytics.nn.modules.head.Detect           [10, [64, 128, 256]]          \nModel summary: 249 layers, 2,692,158 parameters, 2,692,142 gradients, 7.0 GFLOPs\n\nTransferred 313/391 items from pretrained weights\n\u001b[34m\u001b[1mTensorBoard: \u001b[0mStart with 'tensorboard --logdir runs/detect/yolov8n_ppe_css_100_epochs', view at http://localhost:6006/\n","output_type":"stream"},{"name":"stderr","text":"\u001b[34m\u001b[1mwandb\u001b[0m: U
…
