…
oad_state_dict(torch.load('best_model.pth'))\nmodel.to(CFG.DEVICE)","metadata":{"trusted":true,"execution":{"iopub.status.busy":"2024-10-21T22:19:24.558724Z","iopub.execute_input":"2024-10-21T22:19:24.559091Z","iopub.status.idle":"2024-10-21T22:19:24.901603Z","shell.execute_reply.started":"2024-10-21T22:19:24.559050Z","shell.execute_reply":"2024-10-21T22:19:24.900680Z"}},"outputs":[{"execution_count":19,"output_type":"execute_result","data":{"text/plain":"MultimodalModel(\n  (text_model): TextModel(\n    (roberta): RobertaModel(\n      (embeddings): RobertaEmbeddings(\n        (word_embeddings): Embedding(50265, 768, padding_idx=1)\n        (position_embeddings): Embedding(514, 768, padding_idx=1)\n        (token_type_embeddings): Embedding(1, 768)\n        (LayerNorm): LayerNorm((768,), eps=1e-05, elementwise_affine=True)\n        (dropout): Dropout(p=0.1, inplace=False)\n      )\n      (encoder): RobertaEncoder(\n        (layer): ModuleList(\n          (0-5): 6 x RobertaLayer(\n            (attention): RobertaAttention(\n              (self): RobertaSdpaSelfAttention(\n                (query): Linear(in_features=768, out_features=768, bias=True)\n                (key): Linear(in_features=768, out_features=768, bias=True)\n                (value): Linear(in_features=768, out_features=768, bias=True)\n                (dropout): Dropout(p=0.1, inplace=False)\n              )\n              (output): RobertaSelfOutput(\n                (dense): Linear(in_features=768, out_features=768, bias=True)\n                (LayerNorm): LayerNorm((768,), eps=1e-05, elementwise_affine=True)\n                (dropout): Dropout(p=0.1, inplace=False)\n              )\n            )\n            (intermediate): RobertaIntermediate(\n              (dense): Linear(in_features=768, out_features=3072, bias=True)\n              (intermediate_act_fn): GELUActivation()\n            )\n            (output): RobertaOutput(\n              (dense): Linear(in_features=3072, out_features=768, bias=True)\n              (LayerNorm): LayerNorm((768,), eps=1e-05, elementwise_affine=True)\n              (dropout): Dropout(p=0.1, inplace=False)\n            )\n          )\n        )\n      )\n      (pooler): RobertaPooler(\n        (dense): Linear(in_features=768, out_features=768, bias=True)\n        (activation): Tanh()\n      )\n    )\n    (dropout): Dropout(p=0.3, inplace=False)\n    (fc): Linear(in_features=768, out_features=256, bias=True)\n  )\n  (image_model): ImageModel(\n    (model): ResNet(\n      (conv1): Conv2d(3, 64, kernel_size=(7, 7), stride=(2, 2), padding=(3, 3), bias=False)\n      (bn1): BatchNorm2d(64, eps=1e-05, momentum=0.1, affine=True, track_running_stats=True)\n      (relu): ReLU(inplace=True)\n      (maxpool): MaxPool2d(kernel_size=3, stride=2, padding=1, dilation=1, ceil_mode=False)\n      (layer1): Sequential(\n        (0): BasicBlock(\n          (conv1): Conv2d(64, 64, kernel_size=(3, 3), stride=(1, 1), padding=(1, 1), bias=False)\n          (bn1): BatchNorm2d(64, eps=1e-05, momentum=0.1, affine=True, track_running_stats=True)\n          (relu): ReLU(inplace=True)\n          (conv2): Conv2d(64, 64, kernel_size=(3, 3), stride=(1, 1), padding=(1, 1), bias=False)\n          (bn2): BatchNorm2d(64, eps=1e-05, momentum=0.1, affine=True, track_running_stats=True)\n        )\n        (1): BasicBlock(\n          (conv1): Conv2d(64, 64, kernel_size=(3, 3), stride=(1, 1), padding=(1, 1), bias=False)\n          (bn1): BatchNorm2d(64, eps=1e-05, momentum=0.1, affine=True, track_running_stats=True)\n          (relu): ReLU(inplace=True)\n          (conv2): Conv2d(64, 64, kernel_size=(3, 3), stride=(1, 1), padding=(1, 1), bias=False)\n          (bn2): BatchNorm2d(64, eps=1e-05, momentum=0.1, affine=True, track_running_stats=True)\n        )\n      )\n      (layer2): Sequential(\n        (0): BasicBlock(\n          (conv1): Conv2d(64, 128, kernel_size=(3, 3), stride=(2, 2), padding=(1, 1), bias=False)\n          (bn1): BatchNorm2d(128, eps=1e-05, momentum=0.1, affine=True, track_running_stats=True)\n          (relu): ReLU(inplace=True)\n          (conv2): Conv2d(128, 128, kernel_size=(3, 3), stride=(1, 1), padding=(1, 1), bias=False)\n          (bn2): BatchNorm2d(128, eps=1e-05, momentum=0.1, affine=True, track_running_stats=True)\n          (downsample): Sequential(\n            (0): Conv2d(64, 128, kernel_size=(1, 1), stride=(2, 2), bias=False)\n            (1): BatchNorm2d(128, eps=1e-05, momentum=0.1, affine=True, track_running_stats=True)\n          )\n        )\n        (1): BasicBlock(\n          (conv1): Conv2d(128, 128, kernel_size=(3, 3), stride=(1, 1), padding=(1, 1), bias=False)\n          (bn1): BatchNorm2d(128, eps=1e-05, momentum=0.1, affine=True, track_running_stats=True)\n          (relu): ReLU(inplace=True)\n          (conv2): Conv2d(128, 128, kernel_size=(3, 3), stride=(1, 1), padding=(1, 1), bias=False)\n          (bn2): BatchNorm2d(128, eps=1e-05, momentum=0.1, affine=True, track_running_stats=True)\n        )\n      )\n      (layer3): Sequential(\n        (0): BasicBlock(\n          (conv1): Conv2d(128, 256, kernel_size=(3, 3), stride=(2, 2), padding=(1, 1), bias=False)\n          (bn1): BatchNorm2d(256, eps=1e-05, momentum=0.1, affine=True, track_running_stats=True)\n          (relu): ReLU(inplace=True)\n          (conv2): Conv2d(256, 256, kernel_size=(3, 3), stride=(1, 1), padding=(1, 1), bias=False)\n          (bn2): BatchNorm2d(256, eps=1e-05, momentum=0.1, affine=True, track_running_stats=True)\n          (downsample): Sequential(\n            (0): Conv2d(128, 256, kernel_size=(1, 1), stride=(2, 2), bias=False)\n            (1): BatchNorm2d(256, eps=1e-05, momentum=0.1, affine=True, track_running_stats=True)\n          )\n        )\n        (1): BasicBlock(\n          (conv1): Conv2d(256, 256, kernel_size=(3, 3), stride=(1, 1), padding=(1, 1), bias=False)\n          (bn1): BatchNorm2d(256, eps=1e-05, momentum=0.1, affine=True, track_running_stats=True)\n          (relu): ReLU(inplace=True)\n          (conv2): Conv2d(256, 256, kernel_size=(3, 3), stride=(1, 1), padding=(1, 1), bias=False)\n          (bn2): BatchNorm2d(256, eps=1e-05, momentum=0.1, affine=True, track_running_stats=True)\n        )\n      )\n      (layer4): Sequential(\n        (0): BasicBlock(\n          (conv1): Conv2d(256, 512, kernel_size=(3, 3), stride=(2, 2), padding=(1, 1), bias=False)\n          (bn1): BatchNorm2d(512, eps=1e-05, momentum=0.1, affine=True, track_running_stats=True)\n          (relu): ReLU(inplace=True)\n          (conv2): Conv2d(512, 512, kernel_size=(3, 3), stride=(1, 1), padding=(1, 1), bias=False)\n          (bn2): BatchNorm2d(512, eps=1e-05, momentum=0.1, affine=True, track_running_stats=True)\n          (downsample): Sequential(\n            (0): Conv2d(256, 512, kernel_size=(1, 1), stride=(2, 2), bias=False)\n            (1): BatchNorm2d(512, eps=1e-05, momentum=0.1, affine=True, track_running_stats=True)\n          )\n        )\n        (1): BasicBlock(\n          (conv1): Conv2d(512, 512, kernel_size=(3, 3), stride=(1, 1), padding=(1, 1), bias=False)\n          (bn1): BatchNorm2d(512, eps=1e-05, momentum=0.1, affine=True, track_running_stats=True)\n          (relu): ReLU(inplace=True)\n          (conv2): Conv2d(512, 512, kernel_size=(3, 3), stride=(1, 1), padding=(1, 1), bias=False)\n          (bn2): BatchNorm2d(512, eps=1e-05, momentum=0.1, affine=True, track_running_stats=True)\n        )\n      )\n      (avgpool): AdaptiveAvgPool2d(output_size=(1, 1))\n      (fc): Identity()\n    )\n  )\n  (classifier): Sequential(\n    (0): Linear(in_features=768, out_features=128, bias=True)\n    (1): ReLU()\n    (2): Dropout(p=0.5, inplace=False)\n    (3): Linear(in_features=128, out_features=4, bias=True)\n  )\n)"},"metadata":{}}],"execution_count":19},{"cell_type":"markdown","source":"# Defining the prediction function","metadata":{}},{"cell_type":"code","source":"def predict(model, dataloader):\n    model.eval()\n    predictions = {}\n    with torch.no_grad():\n        for batch in dataloader:\n            ids = batch['id']\n            input_ids = batc
…
